model.pth.tar (torch, 158227 bytes, 5 tensors)

weight_ih_l0 f4 [20, 14]
00000000: 4d88 6bbd fee4 ffbd f807 2abe 185d d8bd
00000010: 2270 9e3d 5277 153e 1834 c33b 6a98 463e
00000020: fbb6 01be 9748 253e 400b 4f3e 87d5 8fbd
00000030: f161 2abd addc abbd 4ea2 063c 2bb6 d63d
00000040: c3e7 e13d 302e 6dbb 4e56 3bbe ee09 3c3d
00000050: 3eb1 e0bd 11cb 5cbe c77c 58be 2afa 2bbd
00000060: e79c b8bd f73f 43be f7e3 89bc 221a b6bd
00000070: fc3e 3dbc c27d 2cbd 57c1 35be 76b2 443d
00000080: 07dc ecbd 87bc 10be 9d0d fdbd 531c 1f3c
00000090: 8393 20be 1c77 013e 130b 183e a521 ffbc
000000a0: 64d6 0abe 3fe6 4ebe 688c 9d3c 281e f23d
000000b0: c9b0 44be 4945 a6bd 9598 013e 03dd 0f3e
000000c0: 28b1 9abc 8bc5 a93d 1285 a6bc 39b7 f73c
000000d0: a353 4e3e 719f e23d e64b 97bd 136d ad3c
000000e0: c25d 4dbe fa78 f8bb f156 bf3d e1e9 21bd
000000f0: c999 113e 9161 42be 3f2d 9c3d a7a1 273e
00000100: ee54 0abe 1a2a 373e 3613 1e3d 9108 afbb
00000110: f679 ec3c 6499 0fbe 42c2 553e 132d 013e
00000120: 9cc3 9e3c 803f 45be 9533 37be a836 903c
00000130: 8fc8 073e ce47 01be f64a 73bd c4e8 323e
00000140: 4cbd 4fbd ddd9 7dbd 5dab 97bd 0ca7 233e
00000150: 9543 b63b 06e7 aebb 4f15 fbbd 3df0 fcbd
00000160: 735b 43bc 5c90 3c3e 2c1e 283e 8d10 14be
00000170: 624f b0bd 7bfd 5a3e c935 1ebe 8c1d 8cbd
00000180: b30c 9dbd 1225 b43d 48e2 503e fefd 0abc
00000190: d450 35bd cfd8 9dbd e36d 61be 2a38 03be
000001a0: 86f9 ca3b 5720 373e 28ee 21be 83c7 5d3e
000001b0: 7e73 89bd 22af 42be 58a3 45bd c71b a4bd
000001c0: d91f 883d 358a dfbd f8c8 8b3d 4267 373e
000001d0: 0ad9 3bbe dd18 bf3d 6998 e13d 813f 093d
000001e0: fb25 2e3e f91d 3dbe 667a 82bd 356f c2bc
000001f0: 0d4b 50be 7aaa 05be 5383 133e 9952 2abd
00000200: ddcb 9abd fd99 1dbe 0f68 333e 263f da3d
00000210: 2e9f 1cbe 08ef 16bc 6035 fe3d 4ddf a13d
00000220: 7007 38be 80c7 fd3d 1231 923b 68c7 003e
00000230: 8680 36be 1350 0e3e 563c ee3d 2ad7 04be
00000240: e991 79bd 6e83 46be b160 003e 1f0d 4a3e
00000250: 8b93 18be 9371 b53d abdf 493e fd4b 45be
00000260: cce5 bfbd 4479 913c d41b 4d3e 2e9b 3dbe
00000270: 9144 3d3e 3bac 423e 213d 1dbe 9014 8d3d
00000280: 498c 533e 9da8 98bd ba49 643e 9a57 efbd
00000290: 05d3 94bc 4bf1 593e 0d8f 733d 8c45 08be
000002a0: 6a63 5d3e 1b9a 083e 4db4 6fbc 73ba 0f3e
000002b0: c424 5cbe 1342 e53c f253 293e a823 2fbe
000002c0: c667 5e3e 2413 4bbe 7498 29be 87eb 47be
000002d0: 9959 063e b53a 1ebe 7aed 05be 50c2 743d
000002e0: ade0 623e 2d9b b43d 8163 74bc b337 61be
000002f0: 0500 2ebe a457 3fbc 8820 173e 05ef 5c3d
00000300: 80c2 05bd 8dbe 3dbc fd8c 453e 9553 2cbd
00000310: 7b84 a53d 8db9 183e 63d5 3a3e f3df 5abc
00000320: 5b6c 273e 4efc 51be 9a39 16bd 6d2a e43d
00000330: 7c0b a63c a87b 383e 47ad 163e bc54 2d3e
00000340: 02f4 2dbe f942 16be 17ca f7bd 2956 25be
00000350: c53f 05be c1a6 42be 9bc1 323e 9e22 4e3d
00000360: 52f7 10be c04c 98bd 17e5 683d 6332 e83d
00000370: 9113 35be 50b4 99bb 15bb 95bd a65e 2b3e
00000380: f1ae 18bd cca9 ad3d f259 3ebe 9e32 803d
00000390: 8558 cdbd a3f8 023e c7a5 993c b32e 063d
000003a0: fd93 7ebc fb24 a13d 91f0 f83d d15c 49be
000003b0: 54e7 6abd 99df d0bc 36b3 ba3d 6524 1fbe
000003c0: b281 1f3e 7651 4ebd 5adb 253d 396f 3a3d
000003d0: e238 58be 8d46 f6bc a1a9 ad3d 4382 6abd
000003e0: 433a d53d 9185 a2bc 66bf 413d fec8 3dbe
000003f0: 32fd 223d 1809 ea3d 2486 593c 1043 1d3e
-0.057503033 -0.12494849 -0.16604602 -0.10564631 0.077362314 0.14596298 0.005957138 0.19394079
-0.12667458 0.16140972 0.20219135 -0.07023149 -0.04159731 -0.083917 0.008217407 0.104839645
0.11030533 -0.003619086 -0.18294641 0.045907907 -0.10971306 -0.21561839 -0.21141349 -0.041986622
-0.09014302 -0.1906737 -0.016832335 -0.08891703 -0.011550661 -0.04211212 -0.17749535 0.048021756
-0.115654044 -0.14134417 -0.12356112 0.009711343 -0.15681271 0.12643093 0.14847974 -0.031143973
-0.13558346 -0.2020502 0.01923199 0.11822158 -0.19208063 -0.08118684 0.12655862 0.14049153
-0.018883303 0.082896315 -0.020327125 0.030238735 0.20149092 0.11065567 -0.07387523 0.021170175
-0.20055297 -0.007582781 0.09342755 -0.039529685 0.1421882 -0.18982531 0.076258175 0.16370259
-0.1350896 0.17887154 0.03859254 -0.0053415974 0.02886675 -0.14023358 0.20874885 0.1261485
0.019380383 -0.19262505 -0.1789077 0.017604187 0.13260101 -0.12625048 -0.05939766 0.17471606
-0.050717637 -0.06197535 -0.07405732 0.15981692 0.0055622556 -0.0053375987 -0.12259924 -0.12350509
-0.011923659 0.18414444 0.1641776 -0.14459439 -0.08608891 0.21385758 -0.15450205 -0.06841573
-0.07668438 0.08796133 0.2039882 -0.008483408 -0.044266537 -0.077073686 -0.22014575 -0.12814394
0.0061942963 0.1788343 -0.15813506 0.21658139 -0.067114815 -0.1901212 -0.04825148 -0.080131106
0.066466995 -0.10915033 0.06825441 0.17910483 -0.18344513 0.09330914 0.11015398 0.033507828
0.17006676 -0.18468465 -0.06371002 -0.023734668 -0.2034113 -0.13053313 0.14405565 -0.041582678
-0.07558415 -0.15390773 0.17520164 0.10656576 -0.15295097 -0.009212263 0.12412524 0.07903919
-0.17971587 0.12391567 0.004461416 0.12576067 -0.17822465 0.13897733 0.11632602 -0.12972704
-0.060930166 -0.19386074 0.12536885 0.19731568 -0.14900033 0.08859553 0.19714229 -0.19267268
-0.09370002 0.01775802 0.20030147 -0.18516228 0.18483187 0.19011013 -0.1535535 0.068886876
0.20658983 -0.074540354 0.2229375 -0.116866305 -0.018167028 0.21283452 0.059462596 -0.1330778
0.21619955 0.13340037 -0.014630389 0.14035968 -0.214984 0.027985608 0.16535929 -0.17103446
0.21719274 -0.1983152 -0.16562063 -0.1952344 0.13120116 -0.15452082 -0.13078871 0.059755623
0.2215602 0.0881866 -0.014916302 -0.21993904 -0.16992195 -0.01167861 0.14758503 0.053938884
-0.032656193 -0.011581075 0.19292064 -0.042071898 0.08081909 0.14914532 0.18245463 -0.013359058
0.16349928 -0.20506403 -0.036676027 0.111409046 0.020269148 0.18015921 0.14714538 0.16926855
-0.16987613 -0.14673986 -0.120990925 -0.16146149 -0.13012607 -0.19008924 0.17456667 0.050325982
-0.14156845 -0.07436514 0.056859102 0.113377355 -0.17683245 -0.0046906844 -0.07311074 0.16735324
-0.037276212 0.08479652 -0.18588999 0.062596545 -0.100266494 0.1279016 0.018755807 0.03275938
-0.015538213 0.078683816 0.121552594 -0.19664313 -0.057349518 -0.025497245 0.09116213 -0.15541227
0.15576819 -0.050370656 0.040492393 0.045516226 -0.21115449 -0.030062938 0.0847962 -0.057253134
0.10411503 -0.01983908 0.047301672 -0.18533704 0.039792247 0.11427516 0.0132766105 0.15357614

weight_hh_l0 f4 [20, 20]
00000000: cffa 41be a520 173e bafa c4bd 42b1 16be
00000010: 0387 ae3d 5ff0 ad3d b3ae cbbd a419 cc3d
00000020: 87e9 f4bd 9023 063e f92d 53bd e1c8 263d
00000030: 51a4 163d fd7d 4e3b f71f b8bd 3c24 cd3c
00000040: e078 0b3e 2601 1fbe 7498 adbd e7b4 36be
00000050: d7f8 c4bd 23b5 6d3c 3db5 d0bd 8337 50be
00000060: 4d57 cc3d 5e6a ec3d 16dd c3bc 9543 36bc
00000070: dda3 4f3e 32a7 613e 3e68 303d 0a4a 983d
00000080: 3bf3 d83d 3f6a 33be d3e0 30bc a577 8a3d
00000090: e86b 4b3e fd1a 2dbe d543 003e 493e 503e
000000a0: 9f53 5dbe a2c7 5ebe a16d 2b3d d405 6ebd
000000b0: f62b 623e 59e0 28be 75a0 4ebe 75d2 833c
000000c0: 6b88 32bd bbbc 9d3d 8721 823d f59a 4abe
000000d0: ed75 b0bd f472 a33d 6ee7 8f3d bfc9 14be
000000e0: 34d5 863d 14e9 2a3e 4e6a d93d f930 fdbd
000000f0: 5534 f23d c6b1 e9bb e347 273e 4eb7 313e
00000100: 8b18 82bd 8066 17be 0211 a0bd a093 25be
00000110: 3b68 023e 7851 333d 0fd6 2bbe 94aa 71bd
00000120: d939 5c3e b226 e43d 263c 09bd 5477 59be
00000130: de66 383e 48fc 973d f073 59be f685 71bb
00000140: 7438 0d3e 970b 9cbd 26ad 21be 5d95 1abe
00000150: 2328 493e 5db7 06be 1745 573e 0e59 1e3e
00000160: 9762 0d3e e5b9 5bbe 0274 10bd 9d2a cf3d
00000170: 8d9f 4e3e a513 a6bd e556 30be 4ea2 483e
00000180: 24b3 58be 65f6 4a3e 6d59 4cbe 9896 353d
00000190: 3317 5abe 59df 27be cae2 53bd 33e9 153e
000001a0: 9b4f c03d da14 f53d 6fcf dc3d f1f4 0fbd
000001b0: 7e89 253e a8a4 2bbe 8ed1 a43d 8d7c e63d
000001c0: 5fb5 17bb b309 0a3d 58eb 093e f126 95bd
000001d0: 3bea 57be 6fa7 1ebe d554 b93d 0fe7 123d
000001e0: d983 0cbd 6a86 283e 7268 b3bd 2ae2 ecbd
000001f0: 7ed8 143e 8852 513d e712 443e a074 11bd
00000200: c04f ffbd b27f 4fbc 334a 63be 2b6d 6fbd
00000210: c956 dcbd 2a4e 3f3d 29bf c83d 4c39 5cbe
00000220: 34d1 583e 882a 503e 61b6 303e c120 2e3e
00000230: 3556 f83c 34bb 57be 8778 3abe 5c37 a13d
00000240: 8d26 8e3c c22c 5bbb 0862 023e c090 86bd
00000250: f7e1 bdbd cac1 9bbb ffde ef3d a7d9 28bc
00000260: 2131 3ebe 4018 163e a615 dd3d ce61 a23d
00000270: 6239 55bd 73aa 68bd e795 3f3e 8619 183e
00000280: fb77 023e ea4d 2dbe 3035 4d3e 0ae7 593e
00000290: bf9b 9abc 1506 573e a5d7 49bd 9edc 0a3d
000002a0: 54ff f33d b7c2 5e3e a447 1abe 5d06 6f3d
000002b0: e870 49be b4ed 5abe 1f81 39be 8475 4cbd
000002c0: 9fae 42be d40a 883d 3574 433e c3e2 90bd
000002d0: 3f8c 41bc c2fb 26be 9610 45be ea34 843d
000002e0: f7df 9ebd a091 35be 17d4 c7bd caad ff3d
000002f0: 83ea 2b3d f022 463e 4dbe 8f3c f220 843c
00000300: ccb9 62be 9eea 04be fe63 e5bd acd2 c2bd
00000310: 9bfe dfbd f739 f23d d86a 93bc b6b8 d43d
00000320: 1bd7 bdbd 99d8 f73d 8013 5f3c 00ff 763d
00000330: 8dde 4ebe b2ad 0ebd 54f0 cabd 1613 733c
00000340: db08 873d 6d27 c03c 66e2 2d3e fb6a 7bb9
00000350: c9c9 2cbc fabc 3cbe b115 473e 7789 ef3d
00000360: 5297 863d b507 b4bc 5afe a03d e96c cf3d
00000370: b337 a4bd 8971 a73c f928 723c f2c6 abbd
00000380: 3fdf 4bbe 9b10 843d 0eca ae3d d1ff 793d
00000390: 53a7 d4bd 0e63 903d d4ce 043d e623 26be
000003a0: a5d5 4f3d 83be 5d3e 4660 f23d 5fab e8bc
000003b0: fe6f 593e 15bb 4b3d f6b4 f0bd b69b 88bd
000003c0: d263 d33d ede7 c03d 491d b43b 359b 5bbe
000003d0: bd3e 6fbd fc99 32be 2f76 4e3e d068 b6bc
000003e0: 5b62 9e3d 7e77 633e da58 97bd 2362 d63d
000003f0: 5277 503e 891f e9bd 5610 563e 5221 2abe
-0.18943332 0.14758547 -0.09618135 -0.14716056 0.08521845 0.08493113 -0.099454306 0.09965828
-0.11958604 0.13099504 -0.051557515 0.040718917 0.036777798 0.00315082 -0.08990472 0.025041692
0.13620329 -0.15527782 -0.08476344 -0.17842446 -0.09617775 0.014508518 -0.101908185 -0.20333676
0.09977589 0.115437254 -0.023909133 -0.011124511 0.20277353 0.22036436 0.043068163 0.07435997
0.105932675 -0.17520998 -0.01079579 0.06761102 0.19865382 -0.16904826 0.12525876 0.2033626
-0.2161393 -0.21755841 0.041852597 -0.058111027 0.22087082 -0.16491832 -0.20178397 0.016091565
-0.04358713 0.07702013 0.06354051 -0.19785674 -0.086162426 0.0798091 0.070265636 -0.14530085
0.06583634 0.16690475 0.10615979 -0.123628564 0.11826388 -0.007131788 0.16336016 0.17355081
-0.063523374 -0.14785194 -0.07815744 -0.16169596 0.12735073 0.043778867 -0.16780876 -0.059000567
0.21506442 0.11140193 -0.033504628 -0.21236926 0.1800799 0.07421166 -0.21235633 -0.0036853529
0.13791066 -0.07619398 -0.15788707 -0.1509604 0.19644217 -0.13155885 0.2102245 0.15463659
0.1380714 -0.21457632 -0.035266884 0.1011555 0.20178051 -0.08109216 -0.17220648 0.19593164
-0.21162087 0.19820555 -0.19955988 0.04433307 -0.21297912 -0.16393794 -0.051729955 0.1463974
0.093901835 0.11966868 0.10781752 -0.035145704 0.1616573 -0.1676203 0.08047782 0.11254225
-0.0023148877 0.033700656 0.13468683 -0.07282818 -0.21085446 -0.15493558 0.090493836 0.035864886
-0.034305427 0.16457525 -0.08760156 -0.11566575 0.1453571 0.0511041 0.19147836 -0.035511613
-0.12466383 -0.012664722 -0.22196274 -0.05845372 -0.107587405 0.046705402 0.09802086 -0.21506232
0.21173555 0.20328724 0.17257072 0.17004682 0.030314544 -0.21067506 -0.1821004 0.07871887
0.017352367 -0.0033443426 0.12732708 -0.065705776 -0.09271615 -0.004753326 0.11712455 -0.010305799
-0.18573429 0.14657688 0.10795145 0.07928811 -0.052056678 -0.056803178 0.18709527 0.14853486
0.12741081 -0.16924253 0.2003982 0.2127954 -0.018873094 0.20998414 -0.04927792 0.033901803
0.11913934 0.21753965 -0.15066391 0.058355678 -0.19671977 -0.21379739 -0.18115662 -0.04991676
-0.19011925 0.0664269 0.19087298 -0.07074501 -0.011813222 -0.16306975 -0.19244608 0.06455405
-0.07757562 -0.17731333 -0.0975725 0.124843195 0.041971695 0.19349265 0.017546797 0.01612899
-0.22141188 -0.12980124 -0.112007126 -0.09512839 -0.10937234 0.11827462 -0.017995283 0.10386793
-0.09269544 0.121018596 0.013615489 0.06030178 -0.20202084 -0.034833618 -0.0990912 0.014836093
0.06593486 0.0234563 0.16980895 -0.00023977079 -0.010546156 -0.18431464 0.19441868 0.11696141
0.06571831 -0.021976331 0.07861014 0.10128195 -0.08018436 0.02043988 0.014780276 -0.08387555
-0.1990938 0.0644848 0.085346326 0.06103498 -0.10383477 0.07050143 0.03242381 -0.16224632
0.050740857 0.21654706 0.11834769 -0.028402029 0.21234128 0.049738962 -0.117532656 -0.066703245
0.103217736 0.09419236 0.005496655 -0.21445926 -0.05840944 -0.17441553 0.20162271 -0.022266775
0.077336036 0.22213551 -0.07389994 0.10467937 0.20358017 -0.11382968 0.20904669 -0.16614273

bias_ih_l0 f4 [20]
00000000: 13a0 593e 90da ce3a 8dd3 e8bd d42a 21be
00000010: 5e52 1ebe 7d2a 5f3e 9f1c 09be 303f ef3c
00000020: 71c4 ee3d e8ab 2dbe 5ade 8a3c 05f3 df3d
00000030: feb9 2b3c 2b09 753d d376 083e 63e7 223e
00000040: 08b5 24bd a4ec 4cbe f3fe 13be 9a3c 363e
0.2125247 0.001578169 -0.11368475 -0.15738994 -0.15461108 0.21793552 -0.13389824 0.029204935
0.11658562 -0.16960108 0.016951729 0.10935024 0.010481356 0.059823196 0.13326578 0.1590858
-0.040211707 -0.20012146 -0.14452724 0.17796555

bias_hh_l0 f4 [20]
00000000: b13c 4d3e acaa 3d3e 6f25 8e3d c661 66bd
00000010: d30e 513e f04a 313e 7150 fb3d 7dfd d73d
00000020: c4a9 2bbe 6998 20be 26ba cc3d b682 4dbd
00000030: efc5 a13d d3a8 1ebe 97b7 3c3b 58e5 ac3d
00000040: c473 d3bd 26f6 a7bd 71b2 50be 891b 9b3c
0.20042683 0.18522137 0.06940734 -0.056245588 0.20415811 0.17313743 0.12271202 0.10546396
-0.16763979 -0.1568314 0.099964425 -0.050173484 0.07899081 -0.15494089 0.0028795952 0.08442181
-0.10324815 -0.08201246 -0.2038057 0.018934028

weight f4 [1, 20]
00000000: fc45 173e 057d 633d 8884 08be d832 fcbd
00000010: eadd 81bc bfcc c93d 7d47 d03b 4e49 04bd
00000020: 9c1a a0bd 0107 4fbe 8cbc 143d 1234 a7bd
00000030: 72b9 423d b4a9 283e cfdc 98bd b70b b13d
00000040: 3b20 0cbc e7f9 f13d 23b7 1e3e a9f9 b83a
0.1477279 0.05553915 -0.13331807 -0.12314385 -0.015852887 0.09853505 0.0063561783 -0.03229647
-0.07817575 -0.20217516 0.036312625 -0.081642285 0.047540136 0.16470987 -0.07463991 0.086448126
-0.008552606 0.11815243 0.15499549 0.001411249
